data.pth (torch, 5335 bytes, 6 tensors)

l1.weight f4 [8, 62]
000000 12 85 d8 3e 6c 96 8e 3e 35 04 b4 3e 58 4f 4b be
       0.42289025 0.27849138 0.3515946 -0.19854486
000010 65 43 22 be 7a 5a 3d 3d 2d 57 86 be b2 36 5d be
       -0.15846021 0.046228863 -0.26238385 -0.21602896
000020 7c 79 3e 3e ed 73 51 be 06 56 4a 3c 1f 0b af be
       0.1860103 -0.20454378 0.012349611 -0.34188172
000030 7b 03 1f 3f 25 d1 50 bd 2f 81 8b 3e 21 a9 b7 be
       0.62114686 -0.050980706 0.27246997 -0.35871223
000040 40 d4 9e be dc 45 0c be 15 ac fc bd 9c 14 d1 3e
       -0.3102131 -0.13698524 -0.123375095 0.40836036
000050 17 1c 4a 3e a9 3e 61 3e 65 71 26 be bf 40 dd 3e
       0.19737278 0.21996559 -0.16254194 0.4321346
000060 d8 70 f5 be c2 1c 9b 3c 47 85 f0 be 1e 0b a5 be
       -0.47937655 0.018934611 -0.46976683 -0.32235044
000070 c0 df f7 be 87 4a 13 bf 3e f1 42 be 4b 8e 75 bd
       -0.48412895 -0.57535595 -0.19037339 -0.059950154
000080 5d 52 9e 3e 4e 6e 9e be a3 55 60 3e 7e 79 67 3e
       0.30922213 -0.3094353 0.21907668 0.2260494
000090 e3 f2 52 bb 8d 34 9d 3e 59 88 d3 3d 8a 2b 51 be
       -0.0032188229 0.30704156 0.103287406 -0.20426765
0000a0 46 96 37 be 92 19 93 3e 36 87 0a 3e db 01 bc 3b
       -0.17928419 0.28730446 0.13528141 0.005737526
0000b0 8d 5a 83 3d be ca 53 be a6 0b 12 be 17 58 92 3e
       0.064137556 -0.20682809 -0.14262256 0.28582832
0000c0 c8 40 95 3e 9a 1c 57 bd 21 6d 5f 3d 6f 8b 70 3e
       0.29150987 -0.05251751 0.054547433 0.2349069
0000d0 d6 61 ed 3e c3 de b8 3e 21 23 a6 be 30 b6 25 be
       0.46363705 0.36107454 -0.32448676 -0.1618278
0000e0 75 90 b5 3e d5 b0 ec 3e 2a 63 43 3e 94 bb 1f bf
       0.35461774 0.46228662 0.19080797 -0.62395597
0000f0 41 12 c9 3d 08 c6 a7 3e ec 7c 80 bd 56 e6 15 3e
       0.09817935 0.32768273 -0.06273827 0.14638647
000100 96 0c 16 3f 91 82 0c be a0 c9 3d bd b1 d7 29 3c
       0.58612955 -0.13721682 -0.046334863 0.010366366
000110 63 6e 38 be 8e 8a 84 be da e8 9e bd 5b 0e b3 3c
       -0.18010859 -0.2588696 -0.07759257 0.021857431
000120 f5 9d 1a be ac 2c d1 be 07 18 04 3f bd bf 4e 3c
       -0.15099318 -0.40854394 0.5159916 0.012618956
000130 a5 e1 40 3e 4a 63 9b be ec 54 0a be ce 3c 06 be
       0.18836077 -0.3034919 -0.13508958 -0.13109133
000140 96 9f c4 be 81 b6 f5 bd d8 e7 fa 3e eb 00 24 3e
       -0.38403004 -0.119977005 0.49005008 0.16015975
000150 28 b6 1c be 8f 05 19 3f b2 e4 a7 be ad 34 74 be
       -0.15303862 0.59774107 -0.32791668 -0.23848219
000160 aa 4c 9e be 0d 36 4b be d2 d9 9c be 0b 73 82 be
       -0.30917865 -0.19844837 -0.30634934 -0.25478396
000170 10 d6 40 bd 0a f9 a4 bc b8 0b 02 3f 5f 1b 78 be
       -0.047079146 -0.020138282 0.5079913 -0.24229191
000180 a0 c2 76 3e 81 12 50 3e 52 d2 0d be 32 c8 17 3f
       0.24097681 0.20319559 -0.13849762 0.5928985
000190 42 e1 b2 3e 9b 2d b1 bc 71 d9 13 be 69 2d 45 3e
       0.34937483 -0.021628192 -0.14438416 0.19255604
0001a0 06 f7 8d 3e d8 75 b1 bd 00 d4 36 3c b9 9f e4 bd
       0.27727526 -0.08665055 0.011158943 -0.11163277
0001b0 36 54 b8 bd d4 99 d8 3e 86 b5 0b 3f 5b e3 01 be
       -0.09000437 0.42304862 0.5457386 -0.12684385
0001c0 b0 22 1a 3d 29 25 d0 3e 59 f1 e5 be 85 9a e5 bc
       0.037630737 0.4065335 -0.44910696 -0.028027782
0001d0 37 0c 98 be c9 7f c1 bd 8a d7 48 3e b1 b2 24 3e
       -0.2969682 -0.09448201 0.19613472 0.1608379
0001e0 4a 99 29 3e e6 e4 b3 be 40 c6 40 3b e1 b1 6f 3e
       0.16562381 -0.35135573 0.0029415041 0.23407699
0001f0 a6 74 d6 be 3e 3f 81 3c 20 03 03 3f fb 70 45 be
       -0.4188587 0.015777227 0.51176643 -0.1928138
000200 93 5c 1b be 44 a3 ee 3d b4 a2 9b bc ca ca 85 be
       -0.15172033 0.11652234 -0.018998481 -0.26131278
000210 ce 52 63 be f2 ab 1e 3f 49 7c 2e be 1b 56 c7 be
       -0.22199556 0.6198112 -0.17039599 -0.3893288
000220 47 f7 00 3f 2d 6c 1d 3e 2b d3 ad bd 28 7f 08 3f
       0.50377315 0.15373297 -0.08487543 0.53319025
000230 7b 18 7c 3e 26 27 c6 3e 4c 57 93 be 7a 3e d1 be
       0.24618714 0.38701743 -0.2877754 -0.40867978
000240 22 b7 d6 3e 05 45 d9 3d 65 54 49 3e 87 62 ba 3e
       0.41936594 0.106088676 0.196611 0.36403295
000250 85 64 a4 3e 89 59 eb 3d b0 4f 11 3e 0d fc d8 3d
       0.3210794 0.11491687 0.14190555 0.1059495
000260 0d e0 c0 3e dd 4e c0 3e 0d 4e a8 be 63 13 23 3e
       0.37670937 0.37560168 -0.32872048 0.15925364
000270 3e d4 18 3f 34 47 dd be b9 b1 4f 3e 74 de 4c 3e
       0.59698856 -0.43218386 0.2028264 0.20006734
000280 4d d3 39 bd 48 99 0b 3f f7 16 d0 3e 06 7e 03 bd
       -0.045367528 0.54530764 0.4064252 -0.032102607
000290 45 fd aa bc dc 1b 87 3e 59 32 f0 3d a3 93 14 3f
       -0.020872721 0.26388443 0.11728353 0.58037776
0002a0 3d 48 0d be 4c 06 0d 3f 80 ed 78 bd 71 f2 7a 3e
       -0.13797088 0.55087733 -0.060773373 0.24506547
0002b0 17 29 f3 3e 60 c5 39 be c3 38 ed 3e 6f 2d 85 3e
       0.47492287 -0.18141699 0.46332368 0.26011226
0002c0 31 f6 43 bf 62 5c ac be dc b1 aa be 4d fe 70 3d
       -0.76547533 -0.33664232 -0.3333882 0.05883627
0002d0 df b2 c0 3e 33 28 b8 3e eb a5 5b bd f5 35 42 3f
       0.37636468 0.3596817 -0.05362503 0.7586358
0002e0 62 bd 93 bd 01 4d 0e 3d 56 a6 9b bd 61 38 ba 3d
       -0.07213856 0.034741405 -0.076000854 0.09092785
0002f0 fc b0 d2 3d d7 1f 49 3d d1 53 83 be fb b4 0d be
       0.10287663 0.04910263 -0.25649884 -0.1383857
000300 ba f4 ed 3e aa 9e bb 3e 60 db 2b be 5c 10 e3 3e
       0.46475774 0.3664449 -0.16782904 0.4434842
000310 57 96 46 3d 0f 63 da be bf 07 28 bf f7 89 f1 3e
       0.04848322 -0.426537 -0.6563682 0.4717557
000320 60 0e ea bd bb e4 d1 3e a8 42 16 3f 99 b5 24 3f
       -0.11428523 0.4099482 0.5869546 0.64339596
000330 90 7f d1 be 63 60 9e be f0 6b 4f 3d 4c 3f 01 bd
       -0.40917635 -0.30932912 0.050640047 -0.031554505
000340 15 36 b7 3e eb ac 15 bf f2 a4 0d 3f ce 56 10 3f
       0.3578345 -0.58466977 0.5532981 0.56382453
000350 62 2e 42 3f 0c ee 0f 3f f3 49 00 3f 7a af 0e 3f
       0.75852025 0.56222606 0.5011284 0.55736506
000360 ef 57 e4 be c7 21 fa 3e 4a c8 ae 3d af b2 ee be
       -0.44598338 0.48853895 0.08534296 -0.466207
000370 ea f3 c5 be 8c 59 f9 3c ae c2 cd 3c 9e e6 b1 3b
       -0.38662654 0.030438207 0.025117245 0.005429103
000380 9e 5c 3e 3e b3 eb 9e bd 21 32 81 3d 98 57 77 be
       0.18590018 -0.077598 0.063083895 -0.24154508
000390 5f eb 95 bd 21 9e c8 3e bd 62 7a be 9a 6e 14 3f
       -0.07320284 0.39183143 -0.24451728 0.57981265
0003a0 02 a4 8b be c4 89 d6 be fa e0 1f 3d b4 fb 9d be
       -0.27273566 -0.41901982 0.039032914 -0.30856097
0003b0 67 35 e0 3e fe 4c a1 be 96 e4 22 3e f8 40 62 bd
       0.43790743 -0.31504053 0.15907511 -0.05523774
0003c0 b7 61 8e be 0c e0 1f 3f 22 48 1b be 87 38 8a be
       -0.27808926 0.62451243 -0.15164235 -0.26996252
0003d0 c1 6f 13 be d1 a0 1d 3f d2 e4 ac bd 1f db 0c 3f
       -0.143981 0.6157351 -0.084420815 0.5502185
0003e0 78 a3 df 3e 9c 53 a4 3e fd 2a df 3e ab 7f 52 bd
       0.43679404 0.3209504 0.43587485 -0.051391285
0003f0 42 d0 b2 be f4 5d e4 3c fd 3c 35 be 34 25 09 bf
       -0.34924513 0.027876832 -0.17699046 -0.5357239

l1.bias f4 [8]
000000 50 e5 f7 3e 72 98 a8 3e 62 9d 41 3f c5 e1 2f 3f
       0.4841714 0.32928807 0.7563077 0.6870387
000010 0f a2 00 3f 83 29 5a 3f 38 a8 eb 3e 94 f1 30 3f
       0.5024728 0.8521959 0.46026778 0.6911862

l2.weight f4 [8, 8]
000000 3e 81 38 3f 28 e6 8e 3f 05 ae 8d 3f 37 61 4f bf
       0.7207221 1.1163988 1.1068732 -0.81007713
000010 89 e0 b5 be 40 44 6a bd 53 97 4a 3f ea c1 a3 bd
       -0.3552287 -0.057193995 0.7913715 -0.079959705
000020 07 fc 96 bd fd 0c ac 3d 05 2c cc 3f 5c 56 af 3f
       -0.07372289 0.08400915 1.5950934 1.369823
000030 0e 2c de 3e 5a 7e db 3d ed 2e 3f be e6 94 b1 be
       0.43392986 0.10717459 -0.18670245 -0.34683913
000040 24 f2 32 bf 49 4b 1b be 48 9e d0 3e ba a6 7f 3f
       -0.6990073 -0.15165438 0.4074576 0.9986378
000050 ce df fe be f5 1f aa 3f 24 d0 65 be ba 84 b6 bb
       -0.49780124 1.3291003 -0.2244268 -0.0055700215
000060 e6 c4 a8 3f c4 b7 2d 3f ac 13 46 be 1f f2 06 be
       1.3185089 0.6785853 -0.19343442 -0.131783
000070 5b c5 56 3f 5f 0d 83 be cf 5c 9d 3f 95 cb 13 3f
       0.8389489 -0.2559614 1.2293948 0.57732517
000080 4d 8a 66 3f 85 34 10 3f 93 78 6b bd ac 27 5e bf
       0.9005478 0.5633014 -0.057488035 -0.86779284
000090 d5 46 cc ba 13 db 97 3f f1 aa 5b 3f 0a 9c 86 3f
       -0.0015585074 1.1863731 0.8580771 1.0516369
0000a0 2d 97 80 3e 05 83 05 3e 06 4c 2d 3f e1 cc 26 3f
       0.25115338 0.13038261 0.6769413 0.6515637
0000b0 fa 0c 96 3f 99 4d 9e bf 65 aa 1e 3e d5 de 86 3f
       1.172271 -1.2367431 0.15494688 1.0536753
0000c0 a7 92 86 be 3d 63 73 bf 13 6e de be 8a bf 4b 3f
       -0.26283762 -0.950733 -0.43443355 0.7958914
0000d0 e5 dc 08 3f db 09 ad 3e c1 2f c9 be fc 7b 7c 3f
       0.5346206 0.33796582 -0.39294246 0.98626685
0000e0 b3 98 a2 bd 03 68 70 3f 57 e8 86 3f d8 e8 71 3e
       -0.07939281 0.9390871 1.0539654 0.23623979
0000f0 46 c0 ca 3e 13 73 86 bf b8 1b 13 be 3e b2 c3 3e
       0.39599818 -1.0503868 -0.14366043 0.38221925

l2.bias f4 [8]
000000 4b f1 92 bc f3 b2 2e 3f 68 10 2e 3f f9 6b d2 3e
       -0.017937323 0.68241805 0.67993784 0.41098002
000010 b9 54 38 3f 68 f0 3e bd 8d 0d 57 3f 0c cb df be
       0.72004277 -0.046615988 0.8400505 -0.437096

l3.weight f4 [7, 8]
000000 37 b8 46 3f 6e fa 06 be a8 48 24 be f7 45 09 3f
       0.7762484 -0.13181469 -0.16043341 0.5362238
000010 39 eb 21 3f c3 39 3e bf 10 31 4b bf 9f c8 08 bf
       0.63249546 -0.7430689 -0.7937174 -0.53431123
000020 f5 7d 0a bf e5 82 62 3f a2 ad 1f 3f c5 67 0a bf
       -0.54098445 0.8848098 0.6237432 -0.5406459
000030 40 d1 d6 be 3a 08 96 bf 39 fe 19 3f ac a6 3a bf
       -0.4195652 -1.172126 0.6015354 -0.7291057
000040 6d 2f 2c 3f 06 e7 c0 bd 30 f2 88 bf d1 d8 58 3e
       0.67259866 -0.09419064 -1.069891 0.21176459
000050 03 d1 35 be f8 a2 00 3f 69 54 e4 be 6b 42 3e 3f
       -0.17755513 0.5024867 -0.4459565 0.74320096
000060 36 14 d6 bc 66 47 bf be 53 b5 4c bf 29 6a ab be
       -0.026132684 -0.3735916 -0.7996418 -0.3347943
000070 12 db f3 be 25 1a 11 bf 8c 59 13 bf 3f 1b 2c be
       -0.47628075 -0.5668052 -0.5755851 -0.16807269
000080 e2 7b 07 bf ef 24 dc 3e e6 53 83 be 30 e7 9f 3d
       -0.52923405 0.42996928 -0.25649947 0.078077674
000090 ce 3b 99 bf 44 e3 03 3f 56 94 01 3f 8e 23 aa 3e
       -1.1971376 0.51518655 0.5061697 0.3323025
0000a0 84 1a 63 bf 6f ac 8c bf 8c 99 be 3e 27 55 18 be
       -0.88712335 -1.0990123 0.37226522 -0.14876233
0000b0 b0 f7 3d 3f 3f 1b 6c bf f1 b1 ff 3e 65 66 02 bf
       0.74206066 -0.92229074 0.49940446 -0.5093749
0000c0 19 4e 86 bf 73 fa 25 be 3d 7e 2b bf 5d 55 4b 3f
       -1.0492584 -0.1620882 -0.669895 0.7942713
0000d0 45 02 51 3e 93 15 cc 3e 13 82 06 3f c7 da ff be
       0.20411022 0.3986021 0.5254223 -0.499716

l3.bias f4 [7]
000000 2c 15 84 be 48 ce d0 3e ef f9 bc be 94 02 a6 bc
       -0.25797403 0.4078238 -0.36909434 -0.020264901
000010 2d e7 8d be 28 6b 3f 3e a2 56 26 be
       -0.27715436 0.1869322 -0.16243985
